Auto_TF_to_uC/Converted_model_files/cats_and_dogs_112x112_less_conv.tflite (tflite, 37600 bytes, 6 tensors)

sequential/dense/MatMul i1 [64, 400] scale=0.006383293 zero_point=0
000000 0c 0e 08 0a f5 e8 ef fd 1f fa 21 20 d4 09 06 09
       0.076599516 0.0893661 0.051066343 0.06383293 -0.07021622 -0.15319903 -0.10851598 -0.019149879 0.19788207 -0.038299758 0.21064867 0.20426537 -0.2808649 0.057449635 0.038299758 0.057449635
000010 05 f0 03 03 e8 ea 0a e7 1a e9 33 24 f8 05 09 17
       0.031916466 -0.102132685 0.019149879 0.019149879 -0.15319903 -0.14043245 0.06383293 -0.15958232 0.16596562 -0.14681573 0.32554793 0.22979854 -0.051066343 0.031916466 0.057449635 0.14681573
000020 01 fc fa 1e fa f9 fa e3 20 dd 2c 08 e4 0a 04 f4
       0.006383293 -0.025533171 -0.038299758 0.19149879 -0.038299758 -0.04468305 -0.038299758 -0.18511549 0.20426537 -0.22341526 0.2808649 0.051066343 -0.1787322 0.06383293 0.025533171 -0.076599516
000030 fa f5 21 05 fc 0b fb ee 1d e2 30 f8 dc ef 15 03
       -0.038299758 -0.07021622 0.21064867 0.031916466 -0.025533171 0.07021622 -0.031916466 -0.11489927 0.18511549 -0.19149879 0.30639806 -0.051066343 -0.22979854 -0.10851598 0.13404915 0.019149879
000040 ec dc 0d 10 00 16 27 ff 39 f8 0c d8 ec ef 0e 0d
       -0.12766586 -0.22979854 0.08298281 0.102132685 0.0 0.14043245 0.24894843 -0.006383293 0.3638477 -0.051066343 0.076599516 -0.25533172 -0.12766586 -0.10851598 0.0893661 0.08298281
000050 db f8 db f6 fb 07 39 0f 15 05 26 f9 d8 f2 10 ff
       -0.23618184 -0.051066343 -0.23618184 -0.06383293 -0.031916466 0.04468305 0.3638477 0.09574939 0.13404915 0.031916466 0.24256513 -0.04468305 -0.25533172 -0.0893661 0.102132685 -0.006383293
000060 02 01 ec 07 f8 dd 18 dc 27 eb 34 17 04 06 d1 0a
       0.012766586 0.006383293 -0.12766586 0.04468305 -0.051066343 -0.22341526 0.15319903 -0.22979854 0.24894843 -0.13404915 0.33193123 0.14681573 0.025533171 0.038299758 -0.30001476 0.06383293
000070 14 f4 f6 1e fa 02 0b f1 22 f6 47 fb e7 17 e4 23
       0.12766586 -0.076599516 -0.06383293 0.19149879 -0.038299758 0.012766586 0.07021622 -0.09574939 0.21703196 -0.06383293 0.45321378 -0.031916466 -0.15958232 0.14681573 -0.1787322 0.22341526
000080 07 fc 0d 05 03 f9 04 11 1f f8 20 f1 fe 0a f3 21
       0.04468305 -0.025533171 0.08298281 0.031916466 0.019149879 -0.04468305 0.025533171 0.10851598 0.19788207 -0.051066343 0.20426537 -0.09574939 -0.012766586 0.06383293 -0.08298281 0.21064867
000090 f3 ec 06 0d fc e5 2e fb 17 f8 f9 ef e2 08 00 00
       -0.08298281 -0.12766586 0.038299758 0.08298281 -0.025533171 -0.1723489 0.29363146 -0.031916466 0.14681573 -0.051066343 -0.04468305 -0.10851598 -0.19149879 0.051066343 0.0 0.0
0000a0 fc e9 df 21 f1 fe 0b e5 fa 02 0f fc eb 0a 1a 0d
       -0.025533171 -0.14681573 -0.21064867 0.21064867 -0.09574939 -0.012766586 0.07021622 -0.1723489 -0.038299758 0.012766586 0.09574939 -0.025533171 -0.13404915 0.06383293 0.16596562 0.08298281
0000b0 e5 e6 e1 09 fa dc 23 f6 fa 11 08 f9 01 0b f4 e9
       -0.1723489 -0.16596562 -0.19788207 0.057449635 -0.038299758 -0.22979854 0.22341526 -0.06383293 -0.038299758 0.10851598 0.051066343 -0.04468305 0.006383293 0.07021622 -0.076599516 -0.14681573
0000c0 fa f6 fc 1f ed e1 fe d8 07 f3 20 fa f8 fd e9 0b
       -0.038299758 -0.06383293 -0.025533171 0.19788207 -0.12128256 -0.19788207 -0.012766586 -0.25533172 0.04468305 -0.08298281 0.20426537 -0.038299758 -0.051066343 -0.019149879 -0.14681573 0.07021622
0000d0 fb de fc 18 fb ea 2f 08 0a 0d 14 fa 0d 01 ef 12
       -0.031916466 -0.21703196 -0.025533171 0.15319903 -0.031916466 -0.14043245 0.30001476 0.051066343 0.06383293 0.08298281 0.12766586 -0.038299758 0.08298281 0.006383293 -0.10851598 0.11489927
0000e0 d8 da 0a 05 0b f2 2f 1e 0a f6 15 e8 f9 03 02 07
       -0.25533172 -0.24256513 0.06383293 0.031916466 0.07021622 -0.0893661 0.30001476 0.19149879 0.06383293 -0.06383293 0.13404915 -0.15319903 -0.04468305 0.019149879 0.012766586 0.04468305
0000f0 fa 02 04 0b f0 e0 04 eb f5 07 f9 1f e7 12 0e 00
       -0.038299758 0.012766586 0.025533171 0.07021622 -0.102132685 -0.20426537 0.025533171 -0.13404915 -0.07021622 0.04468305 -0.04468305 0.19788207 -0.15958232 0.11489927 0.0893661 0.0

sequential/dense_1/MatMul i1 [1, 64] scale=0.005893206 zero_point=0
000000 cc ae ba cf 8f 22 19 b4 4f d4 22 a3 2c 5e a3 20
       -0.30644673 -0.4832429 -0.41252443 -0.2887671 -0.6659323 0.20036902 0.14733015 -0.44788367 0.4655633 -0.25930107 0.20036902 -0.54806817 0.25930107 0.5539614 -0.54806817 0.1885826
000010 53 45 42 d7 3c 2f 35 5a 2d 4d c7 1f b5 21 bd 94
       0.48913613 0.40663123 0.3889516 -0.24162145 0.35359237 0.2769807 0.31233993 0.53038853 0.26519427 0.45377687 -0.33591276 0.1826894 -0.44199046 0.1944758 -0.39484483 -0.63646626
000020 ce a4 31 9c 33 08 bb b4 cd 04 d4 c2 48 7f b8 b3
       -0.2946603 -0.542175 0.2887671 -0.5893206 0.30055353 0.04714565 -0.40663123 -0.44788367 -0.30055353 0.023572825 -0.25930107 -0.3653788 0.42431086 0.74843717 -0.42431086 -0.45377687
000030 ac 1d 21 3b 35 d9 35 27 52 67 cc 33 21 5c 48 22
       -0.49502933 0.17090298 0.1944758 0.34769917 0.31233993 -0.22983505 0.31233993 0.22983505 0.4832429 0.60700023 -0.30644673 0.30055353 0.1944758 0.542175 0.42431086 0.20036902

sequential/conv2d/Conv2D i1 [8, 3, 3, 1]
000000 2e 7f 38 82 ee 4a 85 0d 0a ab 10 d4 63 77 8f 81
       46 127 56 -126 -18 74 -123 13 10 -85 16 -44 99 119 -113 -127
000010 db e0 d1 58 59 9c 4b 4f 81 a9 0b 27 f3 c7 47 94
       -37 -32 -47 88 89 -100 75 79 -127 -87 11 39 -13 -57 71 -108
000020 f2 7f 4a 89 c6 f8 bd e2 0f dc 7f c7 df 7f 6e e8
       -14 127 74 -119 -58 -8 -67 -30 15 -36 127 -57 -33 127 110 -24
000030 df fb d8 cd 87 25 81 15 db a0 f1 13 4b 57 61 9b
       -33 -5 -40 -51 -121 37 -127 21 -37 -96 -15 19 75 87 97 -101
000040 81 c3 cc e5 b5 53 0a 6a
       -127 -61 -52 -27 -75 83 10 106

sequential/conv2d_1/Conv2D i1 [8, 3, 3, 8]
000000 00 21 3a f2 f8 24 81 f8 47 3c 0d db 05 29 dc d8
       0 33 58 -14 -8 36 -127 -8 71 60 13 -37 5 41 -36 -40
000010 38 01 35 11 05 05 d3 68 c9 a5 05 21 31 f3 e4 da
       56 1 53 17 5 5 -45 104 -55 -91 5 33 49 -13 -28 -38
000020 05 1e 5f c0 05 71 8b 46 f9 1a 12 cf 4e 49 bb f7
       5 30 95 -64 5 113 -117 70 -7 26 18 -49 78 73 -69 -9
000030 d2 0f b7 0f 18 92 e8 c6 d1 ca 29 04 51 ea b0 ba
       -46 15 -73 15 24 -110 -24 -58 -47 -54 41 4 81 -22 -80 -70
000040 17 f3 e5 e3 04 5e b3 cc fc 3c 46 15 45 08 11 28
       23 -13 -27 -29 4 94 -77 -52 -4 60 70 21 69 8 17 40
000050 01 ee 1d 0f 42 d7 06 e8 d8 4d 1c 00 f0 26 fa bd
       1 -18 29 15 66 -41 6 -24 -40 77 28 0 -16 38 -6 -67
000060 ec f4 fb 18 7f 1d 19 45 ca fa 12 29 46 26 31 d3
       -20 -12 -5 24 127 29 25 69 -54 -6 18 41 70 38 49 -45
000070 e4 f7 24 dc e7 db 67 2f 15 02 a6 d8 04 c4 33 28
       -28 -9 36 -36 -25 -37 103 47 21 2 -90 -40 4 -60 51 40
000080 e7 f1 e2 c7 27 0f 53 0c e8 f0 b0 db b8 df 46 d5
       -25 -15 -30 -57 39 15 83 12 -24 -16 -80 -37 -72 -33 70 -43
000090 17 bd 43 e8 e7 23 0b e4 a1 a4 95 48 f8 81 26 13
       23 -67 67 -24 -25 35 11 -28 -95 -92 -107 72 -8 -127 38 19
0000a0 25 03 66 26 c9 24 eb e3 15 40 ed f0 4a 2c e5 f2
       37 3 102 38 -55 36 -21 -29 21 64 -19 -16 74 44 -27 -14
0000b0 54 15 2f d3 29 28 14 c9 b9 e9 95 16 b5 b2 15 00
       84 21 47 -45 41 40 20 -55 -71 -23 -107 22 -75 -78 21 0
0000c0 cf 31 e4 10 8d e7 26 87 34 29 d8 06 49 f3 24 b9
       -49 49 -28 16 -115 -25 38 -121 52 41 -40 6 73 -13 36 -71
0000d0 48 11 3d d6 f6 2e f5 f0 c7 03 f4 11 0f f9 06 f1
       72 17 61 -42 -10 46 -11 -16 -57 3 -12 17 15 -7 6 -15
0000e0 4e d4 42 aa 20 dc 15 ea e0 19 81 26 0a 0c c5 35
       78 -44 66 -86 32 -36 21 -22 -32 25 -127 38 10 12 -59 53
0000f0 b8 31 d5 fd 09 b4 cc 30 59 15 48 dd 1f db 43 d7
       -72 49 -43 -3 9 -76 -52 48 89 21 72 -35 31 -37 67 -41

sequential/conv2d_2/Conv2D i1 [16, 3, 3, 8]
000000 3e 7d 24 f1 d8 e4 2d 20 07 22 4c 1c cf dd 1e d8
       62 125 36 -15 -40 -28 45 32 7 34 76 28 -49 -35 30 -40
000010 1c 42 02 04 f1 d7 d5 d5 fe 0c fd b9 d6 1c b3 13
       28 66 2 4 -15 -41 -43 -43 -2 12 -3 -71 -42 28 -77 19
000020 31 23 3e d7 c1 fc 28 ca 12 1c 3c aa af 06 35 e1
       49 35 62 -41 -63 -4 40 -54 18 28 60 -86 -81 6 53 -31
000030 1a c8 0a 95 8e fd af ba eb 96 ba 82 e5 e9 81 db
       26 -56 10 -107 -114 -3 -81 -70 -21 -106 -70 -126 -27 -23 -127 -37
000040 fa ca 28 bc fb 15 05 97 2b 06 24 fc cd 28 6f d5
       -6 -54 40 -68 -5 21 5 -105 43 6 36 -4 -51 40 111 -43
000050 1f 05 eb 95 b0 07 0e c6 c9 ef df a2 ef 0a 81 a5
       31 5 -21 -107 -80 7 14 -58 -55 -17 -33 -94 -17 10 -127 -91
000060 57 f8 f4 ec 0d 2a 13 c0 13 1b 7e 11 d9 c3 62 c7
       87 -8 -12 -20 13 42 19 -64 19 27 126 17 -39 -61 98 -57
000070 c8 05 1d c9 dd de d8 d0 eb e4 c3 d2 0f 3e ef b2
       -56 5 29 -55 -35 -34 -40 -48 -21 -28 -61 -46 15 62 -17 -78
000080 2a 0b 5f 4c 08 21 2f c8 f6 00 3c 06 fa 0a 70 e7
       42 11 95 76 8 33 47 -56 -10 0 60 6 -6 10 112 -25
000090 15 d5 c4 ec 1f ed 81 03 1b f0 16 ea 11 fc db e8
       21 -43 -60 -20 31 -19 -127 3 27 -16 22 -22 17 -4 -37 -24
0000a0 29 13 2b f1 4b f8 24 f4 13 e0 bc 19 ff eb ae 06
       41 19 43 -15 75 -8 36 -12 19 -32 -68 25 -1 -21 -82 6
0000b0 2b f7 eb f4 05 11 c0 c8 18 d2 01 01 11 e6 2c dd
       43 -9 -21 -12 5 17 -64 -56 24 -46 1 1 17 -26 44 -35
0000c0 18 19 fc 16 2b 1a 2b f7 0f 18 c1 09 37 00 ab f6
       24 25 -4 22 43 26 43 -9 15 24 -63 9 55 0 -85 -10
0000d0 02 13 0c 24 17 f8 e0 c8 bd ec ee 09 c0 fc 09 32
       2 19 12 36 23 -8 -32 -56 -67 -20 -18 9 -64 -4 9 50
0000e0 df f1 1f e2 a1 eb 1d e4 3b f0 39 e9 e3 eb 0f f6
       -33 -15 31 -30 -95 -21 29 -28 59 -16 57 -23 -29 -21 15 -10
0000f0 14 03 38 f7 f3 e2 17 24 da fc e8 f5 ad 15 1d 1f
       20 3 56 -9 -13 -30 23 36 -38 -4 -24 -11 -83 21 29 31

sequential/conv2d_3/Conv2D i1 [16, 3, 3, 16]
000000 e7 c7 c7 c8 d5 98 0e 20 e7 07 0a 04 1a eb 12 2f
       -25 -57 -57 -56 -43 -104 14 32 -25 7 10 4 26 -21 18 47
000010 00 f9 bd 02 8f e4 01 03 f5 58 dc 24 eb f3 ee 01
       0 -7 -67 2 -113 -28 1 3 -11 88 -36 36 -21 -13 -18 1
000020 09 f3 eb 2a c7 ed e6 1d f8 02 d2 2a f9 2a 1a 1f
       9 -13 -21 42 -57 -19 -26 29 -8 2 -46 42 -7 42 26 31
000030 c5 b2 e7 b6 06 bc 24 46 ef 33 fb f8 de 0e 1c 27
       -59 -78 -25 -74 6 -68 36 70 -17 51 -5 -8 -34 14 28 39
000040 e4 db f0 e4 d8 02 f9 38 04 06 e9 2c 01 0c e6 23
       -28 -37 -16 -28 -40 2 -7 56 4 6 -23 44 1 12 -26 35
000050 d2 0c 0e 25 08 e3 00 10 df dc ef 23 f6 04 22 19
       -46 12 14 37 8 -29 0 16 -33 -36 -17 35 -10 4 34 25
000060 0b 12 1c d3 b9 0b 19 09 57 03 e1 24 e6 4c fa 7f
       11 18 28 -45 -71 11 25 9 87 3 -31 36 -26 76 -6 127
000070 f6 c8 f9 fe c8 e8 ed 02 f1 c9 f5 eb f4 ee 0f 10
       -10 -56 -7 -2 -56 -24 -19 2 -15 -55 -11 -21 -12 -18 15 16
000080 10 e2 d8 e9 11 e4 14 06 c7 c3 fc 00 19 95 02 18
       16 -30 -40 -23 17 -28 20 6 -57 -61 -4 0 25 -107 2 24
000090 f5 08 09 01 fb cb 1a e1 10 e0 e7 e3 db 32 0b 2c
       -11 8 9 1 -5 -53 26 -31 16 -32 -25 -29 -37 50 11 44
0000a0 f4 fe 3f 2f d7 12 07 12 f3 2f 01 62 cf f0 ff 36
       -12 -2 63 47 -41 18 7 18 -13 47 1 98 -49 -16 -1 54
0000b0 2e 20 04 44 f1 3d e5 d9 c7 d4 6c 07 e5 c7 e6 d2
       46 32 4 68 -15 61 -27 -39 -57 -44 108 7 -27 -57 -26 -46
0000c0 11 f8 99 29 04 08 05 27 0b f7 11 d9 b3 1d 08 14
       17 -8 -103 41 4 8 5 39 11 -9 17 -39 -77 29 8 20
0000d0 09 2e df fd f4 11 ef 0f 01 af 0f fd d0 e1 d9 26
       9 46 -33 -3 -12 17 -17 15 1 -81 15 -3 -48 -31 -39 38
0000e0 04 c5 81 09 fa df ee 87 ee dc ed 9a f3 90 c2 c1
       4 -59 -127 9 -6 -33 -18 -121 -18 -36 -19 -102 -13 -112 -62 -63
0000f0 cf 34 f3 e3 27 b0 32 f2 0c e9 1b 43 ed 17 24 0e
       -49 52 -13 -29 39 -80 50 -14 12 -23 27 67 -19 23 36 14
